…
   INFO: root.shuffle_array  : ind_list after: [193296, 119643, 23143, 253364, 246748, 58601, 107623, 29622, 168844, 140658] ... [150055, 17089, 80186, 170584, 212038, 211543, 86293, 122579, 152315, 117952]
   INFO: root                : Samples are shuffled
   INFO: root                : Model: "sequential"
   INFO: root                : _________________________________________________________________
   INFO: root                :  Layer (type)                Output Shape              Param #   
   INFO: root                : =================================================================
   INFO: root                :  gru (GRU)                   (None, 50, 500)           783000    
   INFO: root                :                                                                  
   INFO: root                :  gru_1 (GRU)                 (None, 50, 200)           421200    
   INFO: root                :                                                                  
   INFO: root                :  gru_2 (GRU)                 (None, 50, 200)           241200    
   INFO: root                :                                                                  
   INFO: root                :  gru_3 (GRU)                 (None, 50, 100)           90600     
   INFO: root                :                                                                  
   INFO: root                :  conv1d (Conv1D)             (None, 50, 50)            75050     
   INFO: root                :                                                                  
   INFO: root                :  batch_normalization (BatchN  (None, 50, 50)           200       
   INFO: root                :  ormalization)                                                   
   INFO: root                :                                                                  
   INFO: root                :  activation (Activation)     (None, 50, 50)            0         
   INFO: root                :                                                                  
   INFO: root                :  conv1d_1 (Conv1D)           (None, 50, 50)            27550     
   INFO: root                :                                                                  
   INFO: root                :  batch_normalization_1 (Batc  (None, 50, 50)           200       
   INFO: root                :  hNormalization)                                                 
   INFO: root                :                                                                  
   INFO: root                :  activation_1 (Activation)   (None, 50, 50)            0         
   INFO: root                :                                                                  
   INFO: root                :  conv1d_2 (Conv1D)           (None, 50, 50)            22550     
   INFO: root                :                                                                  
   INFO: root                :  batch_normalization_2 (Batc  (None, 50, 50)           200       
   INFO: root                :  hNormalization)                                                 
   INFO: root                :                                                                  
   INFO: root                :  activation_2 (Activation)   (None, 50, 50)            0         
   INFO: root                :                                                                  
   INFO: root                :  conv1d_3 (Conv1D)           (None, 50, 25)            8775      
   INFO: root                :                                                                  
   INFO: root                :  batch_normalization_3 (Batc  (None, 50, 25)           100       
   INFO: root                :  hNormalization)                                                 
   INFO: root                :                                                                  
   INFO: root                :  activation_3 (Activation)   (None, 50, 25)            0         
   INFO: root                :                                                                  
   INFO: root                :  flatten (Flatten)           (None, 1250)              0         
   INFO: root                :                                                                  
   INFO: root                :  dense (Dense)               (None, 100)               125100    
   INFO: root                :                                                                  
   INFO: root                :  activation_4 (Activation)   (None, 100)               0         
   INFO: root                :                                                                  
   INFO: root                :  dense_1 (Dense)             (None, 10)                1010      
   INFO: root                :                                                                  
   INFO: root                :  activation_5 (Activation)   (None, 10)                0         
   INFO: root                :                                                                  
   INFO: root                :  dense_2 (Dense)             (None, 1)                 11        
   INFO: root                :                                                                  
   INFO: root                : =================================================================
   INFO: root                : Total params: 1,796,746
   INFO: root                : Trainable params: 1,796,396
   INFO: root                : Non-trainable params: 350
   INFO: root                : _________________________________________________________________
…
