…
   INFO: root.shuffle_array  : ind_list after: [253099, 199068, 82260, 160550, 96898, 271073, 288393, 158524, 275376, 189006] ... [80186, 170584, 212038, 211543, 86293, 122579, 304137, 152315, 117952, 305711]
   INFO: root                : Samples are shuffled
   INFO: root                : Model: "sequential"
   INFO: root                : _________________________________________________________________
   INFO: root                :  Layer (type)                Output Shape              Param #   
   INFO: root                : =================================================================
   INFO: root                :  gru (GRU)                   (None, 50, 1000)          3066000   
   INFO: root                :                                                                  
   INFO: root                :  gru_1 (GRU)                 (None, 50, 1000)          6006000   
   INFO: root                :                                                                  
   INFO: root                :  gru_2 (GRU)                 (None, 50, 1000)          6006000   
   INFO: root                :                                                                  
   INFO: root                :  gru_3 (GRU)                 (None, 50, 1000)          6006000   
   INFO: root                :                                                                  
   INFO: root                :  gru_4 (GRU)                 (None, 50, 500)           2253000   
   INFO: root                :                                                                  
   INFO: root                :  gru_5 (GRU)                 (None, 50, 500)           1503000   
   INFO: root                :                                                                  
   INFO: root                :  flatten (Flatten)           (None, 25000)             0         
   INFO: root                :                                                                  
   INFO: root                :  dense (Dense)               (None, 100)               2500100   
   INFO: root                :                                                                  
   INFO: root                :  activation (Activation)     (None, 100)               0         
   INFO: root                :                                                                  
   INFO: root                :  dense_1 (Dense)             (None, 100)               10100     
   INFO: root                :                                                                  
   INFO: root                :  activation_1 (Activation)   (None, 100)               0         
   INFO: root                :                                                                  
   INFO: root                :  dense_2 (Dense)             (None, 1)                 101       
   INFO: root                :                                                                  
   INFO: root                : =================================================================
   INFO: root                : Total params: 27,350,301
   INFO: root                : Trainable params: 27,350,301
   INFO: root                : Non-trainable params: 0
   INFO: root                : _________________________________________________________________
…
